net_params.pkl (torch_old, 922 bytes, 3 tensors)

0.weight f4 [10, 1]
00000000: 17a5 1a3e da04 083e 0603 c0be 287d c33e
00000010: d28b 8dbe 0ab4 b0bd f863 a9bf 274d b0be
00000020: a624 8ebe bd45 813f
0.1510204 0.132831 -0.37502307 0.38181424 -0.27645737 -0.0862809 -1.3233633 -0.34433863
-0.27762336 1.0099407

0.bias f4 [10]
00000000: 7edf e5be e99b 3dbf 7cbe c1bf c6ba 13c0
00000010: 22ed 41bf 0343 62be 10c0 8ebe 1867 96bf
00000020: 72d3 91be f177 0ebe
-0.44897074 -0.74066025 -1.5136256 -2.3082747 -0.7575246 -0.22095875 -0.27880907 -1.1750212
-0.28481632 -0.13912942

2.weight f4 [1, 10]
00000000: a4dc 873e 1e7b c1be a8e9 dfbf 42f1 22c0
00000010: e0ca 73bf c6d2 9cbd 17e6 583f e42b adbf
00000020: 95ef c63d ecbf 6f3f
0.26535523 -0.37789243 -1.7493181 -2.5459752 -0.9523144 -0.07657389 0.8472609 -1.3529019
0.097136654 0.93652225
